data.pth (torch, 5015 bytes, 6 tensors)

l1.weight f4 [8, 54]
0	0xbd44ef69	-0.04807988
1	0x3ea39cfb	0.31955704
2	0xbe2e65ab	-0.17030971
3	0x3ec69b9a	0.3879059
4	0x3e8c62dd	0.27419177
5	0x3f3a48fd	0.7276762
6	0xbe549ae7	-0.20762216
7	0xbe5903ad	-0.21192808
8	0xbebd6c1e	-0.3699655
9	0xbeb8217a	-0.3596304
10	0x3ea2554a	0.31705695
11	0x3efc5e3e	0.4929065
12	0xbdb386e5	-0.087659635
13	0x3e97bec6	0.29637736
14	0x3e3bf517	0.18355213
15	0x3ebd977e	0.37029642
16	0x3ec5ebb7	0.386564
17	0x3f1eac0e	0.61981285
18	0xbe46246f	-0.19349836
19	0x3f08aabe	0.5338553
20	0xbe9b9343	-0.3038579
21	0x3efeac97	0.4974105
22	0x3f16fb10	0.5897684
23	0x3f153fe3	0.5830061
24	0x3e472272	0.19446734
25	0x3ef382e8	0.4756081
26	0xbe9c9985	-0.30585876
27	0x3ddc39b1	0.10753191
28	0xbe165199	-0.14679565
29	0x3e6c5987	0.23081027
30	0x3f12773b	0.5721318
31	0x3ecafe36	0.39647073
32	0xbd309eb3	-0.043120097
33	0xbe86ba27	-0.26313898
34	0x3dd59843	0.10429432
35	0x3ecfa49e	0.4055528
36	0xbe99a37e	-0.30007547
37	0xbf017506	-0.5056919
38	0xbe7f7cc1	-0.24949934
39	0xbe839361	-0.2569838
40	0x3efeae88	0.49742532
41	0xbe6376c1	-0.2221327
42	0x3ebc934f	0.36831138
43	0x3dbeacc6	0.09310298
44	0x3df0350e	0.117288694
45	0x3d4c3bfb	0.04986189
46	0xbf093823	-0.5360128
47	0xbe830d87	-0.25596258
48	0x3e0c7b54	0.13718921
49	0xbee2d254	-0.44301093
50	0x3e936984	0.2879144
51	0xbe29e78b	-0.16592233
52	0xbe874879	-0.2642248
53	0xbcfe965e	-0.03107756
54	0x3eadb674	0.33928263
55	0x3ceb5b52	0.028730068
56	0x3ec348b9	0.3814142
57	0xbe768a58	-0.24076211
58	0x3da35c99	0.07976646
59	0x3e99bbfc	0.30026233
60	0x3ea2b922	0.3178187
61	0x3eb51e80	0.35374832
62	0x3ef96597	0.4871032
63	0x3ea16612	0.31523186
64	0xbe43ad49	-0.19109072
65	0xbdaf7916	-0.08568017
66	0x3ef4e732	0.47832638
67	0x3de1034b	0.10986956
68	0x3e393ca3	0.18089537
69	0xbdd0fe8e	-0.102048025
70	0xbe93f156	-0.28895062
71	0x3e816db6	0.25279015
72	0x3ede4550	0.43412256
73	0xbedf819d	-0.43653575
74	0x3e913c10	0.28366137
75	0xbefe4d05	-0.49668136
76	0xbefe4995	-0.49665514
77	0xbefaa8c8	-0.48956895
78	0x3e99c630	0.30034018
79	0xbe9ed64c	-0.3102287
80	0x3f2f6b7a	0.6852337
81	0x3dced724	0.100996286
82	0x3eee2348	0.46511292
83	0xbe372839	-0.17886437
84	0x3a81a324	0.0009890539
85	0xbcb31820	-0.02186209
86	0x3e5f76f1	0.21822716
87	0x3ecf3fdd	0.4047841
88	0x3ea9a73b	0.331354
89	0xbddaade6	-0.106777
90	0x3f17d801	0.5931397
91	0x3ee037f3	0.43792686
92	0x3ef7730d	0.48329964
93	0x3eae389f	0.34027573
94	0x3e487f7f	0.19579886
95	0x3f13a33c	0.5767095
96	0x3dc9778b	0.09837254
97	0xbc9f97e3	-0.019481605
98	0x3eba9fa1	0.36449912
99	0x3e5794aa	0.21052805
100	0x3ec3215d	0.38111392
101	0x3e32c2a5	0.17457063
102	0x3e62a106	0.22131738
103	0x3f29857d	0.6621931
104	0xbea44820	-0.32086277
105	0x3ee63c02	0.44967657
106	0x3ebe9313	0.37221584
107	0x3ed15997	0.40888664
108	0xbeaf5ba2	-0.34249598
109	0x3f258736	0.6465944
110	0xbeab99b6	-0.3351571
111	0x3e74fd13	0.23924665
112	0x3ec13370	0.37734556
113	0x3f2b776a	0.66979086
114	0x3db8a64d	0.09016094
115	0xbe92e4d3	-0.28690204
116	0xbe44dea4	-0.19225556
117	0xbe583387	-0.21113406
118	0x3e9329b5	0.28742757
119	0xbececc91	-0.40390447
120	0x3f25d19a	0.6477295
121	0xbe883360	-0.26601696
122	0x3f01eece	0.5075501
123	0xbe7c0c40	-0.24614048
124	0x3ed81be5	0.42208782
125	0x3f262386	0.64897954
126	0x3e9bddde	0.3044271
127	0x3eba399d	0.3637208
128	0xbe0d56bd	-0.1380262
129	0x3ee4eb3b	0.44710717
130	0x3ee10cd3	0.43955097
131	0x3e3b3a4a	0.18283954
132	0xbd6270e5	-0.055283446
133	0x3e6501d5	0.2236398
134	0x3ee0a7a0	0.43877888
135	0x3f4b252c	0.79353595
136	0x3e8cce76	0.27501267
137	0x3f0cf212	0.5505687
138	0x3eaccf72	0.33752018
139	0xbe63ef54	-0.22259265
140	0xbe636870	-0.22207808
141	0xbe349ae5	-0.17637213
142	0x3f5d55be	0.8645896
143	0xbe838684	-0.25688565
144	0x3ea09027	0.3135998
145	0xbe60fcce	-0.21971437
146	0x3e442e4b	0.19158284
147	0x3dc1d147	0.094637446
148	0x3eee8d1b	0.4659203
149	0x3ebe2b94	0.37142622
150	0xbe2b9651	-0.1675656
151	0x3f2d6bd8	0.6774268
152	0xbe51997f	-0.2046871
153	0x3f429116	0.76002634
154	0xbf2d9d59	-0.6781822
155	0xbe4a483e	-0.1975412
156	0x3eba2819	0.36358717
157	0x3f0ad61b	0.5423295
158	0xbeba45b8	-0.36381316
159	0x3e57909d	0.2105126
160	0x3dd796a1	0.10526777
161	0x3e9d723c	0.30751216
162	0xbe9707f7	-0.29498264
163	0x3e8271a3	0.25477323
164	0x3ecdbd34	0.40183413
165	0xbe2c9072	-0.16851977
166	0xbe26dd5e	-0.16295382
167	0x3f40277c	0.7506025
168	0x3ea754af	0.32681796
169	0x3eadcead	0.33946744
170	0x3eb1041d	0.3457345
171	0x3eba4dc0	0.36387444
172	0xbe940fe7	-0.28918383
173	0x3e6a5d3d	0.2288713
174	0x3ea4dbcb	0.3219894
175	0x3e2cd8c6	0.16879568
176	0x3e4c8bbe	0.19975182
177	0x3e6a7f78	0.22900188
178	0xbeb1631f	-0.34645936
179	0x3f492881	0.7857743
180	0xbe8949a4	-0.26813996
181	0xbf052c22	-0.52020466
182	0xbe24c1d3	-0.16089563
183	0xbf20d907	-0.6283116
184	0xbf26dbf9	-0.651794
185	0xbeb5a72a	-0.354791
186	0x3e8e43d0	0.27786112
187	0xbe163e88	-0.14672291
188	0xbea361d8	-0.31910586
189	0x3eb67976	0.35639542
190	0x3b84f18b	0.0040571145
191	0x3e7bf6f1	0.2460592
192	0x3f44ed67	0.7692475
193	0x3e24ec0c	0.1610567
194	0x3c761331	0.015019224
195	0x3f01c998	0.5069823
196	0x3e9569cc	0.2918228
197	0x3e7dffd2	0.24804619
198	0x3c9b5ad6	0.018964212
199	0x3ef731e6	0.48280257
200	0x3e659994	0.22421867
201	0x3e566f27	0.20940839
202	0x3f15cf11	0.58519083
203	0xbf15c9f5	-0.58511287
204	0x3de74f33	0.11294403
205	0x3e8f21fa	0.2795561
206	0x3ed82e38	0.42222762
207	0x3f002383	0.50054187
208	0xbf1e1b63	-0.6176054
209	0xbe3eb3b9	-0.18623246
210	0xbe3435fa	-0.17598715
211	0xbec6b377	-0.38808796
212	0x3e524f21	0.20537998
213	0xbec0012a	-0.37500888
214	0x3e85a739	0.26104143
215	0x3d95bad5	0.07311026
216	0x3f29f0ca	0.6638304
217	0xbdde1d6e	-0.10845457
218	0x3ee54208	0.4477694
219	0xbd2ab6a5	-0.04167809
220	0x3d461933	0.048363876
221	0xbee09869	-0.4386628
222	0x3ec47edc	0.38378036
223	0x3eae2c01	0.34017947
224	0x3ea4b3ee	0.32168525
225	0x3e7e9736	0.2486237
226	0xbdc5d949	-0.096605845
227	0x3f1e1d58	0.61763525
228	0x3df729dc	0.12068531
229	0x3f2a21f1	0.6645804
230	0xbdf43ab6	-0.11925261
231	0x3efc7514	0.49308074
232	0xbe9706b3	-0.294973
233	0xbee07870	-0.43841887
234	0xbd8a43aa	-0.06751187
235	0xbee077d7	-0.4384143
236	0x3eddfe17	0.43357918
237	0xbeae3c95	-0.34030595
238	0xbece6da3	-0.4031802
239	0xbe9fbe09	-0.31199673
240	0x3e936508	0.28788018
241	0xbdef6ccb	-0.116906725
242	0xbe6c2e11	-0.23064448
243	0xbeac2a98	-0.33626246
244	0x3da5d588	0.080973685
245	0xbed9581c	-0.42450035
246	0xbea3bb83	-0.31978998
247	0x3f3ec21d	0.74514943
248	0x3ebbd7b8	0.36688018
249	0x3ef8c953	0.48591098
250	0xbe4fa53a	-0.20277873
251	0x3f0367ef	0.51330465
252	0xbdfb675a	-0.12275572
253	0x3ee0697e	0.43830484
254	0x3eabeea3	0.33580503
255	0x3e80591c	0.25067985

l1.bias f4 [8]
0	0x3f48ae5f	0.7839107
1	0x3efe4f7a	0.4967001
2	0x3f2d947b	0.6780469
3	0x3f26da0e	0.65176475
4	0x3ee07f5a	0.43847162
5	0x3f475c20	0.77874947
6	0x3f45ca21	0.7726155
7	0x3f2b7517	0.6697554

l2.weight f4 [8, 8]
0	0x3f3f1e09	0.74655205
1	0x3e454742	0.19265464
2	0xbf322d40	-0.69600296
3	0x3bf3ddfa	0.007442233
4	0x3faf48f8	1.3694143
5	0x3fbc38b0	1.47048
6	0x3f5e5f2d	0.86863977
7	0x3f91f543	1.1402973
8	0xbf87eb01	-1.0618593
9	0x3f32d1da	0.6985146
10	0x3f11d89d	0.5697115
11	0xbeef1923	-0.46698865
12	0xbdb67c0c	-0.08910379
13	0xbe81d023	-0.25354108
14	0xbe971188	-0.29505563
15	0xbf77dc4f	-0.9682054
16	0xbf20c100	-0.62794495
17	0x3f473657	0.7781729
18	0x3edeec03	0.43539438
19	0xbe3713f3	-0.17878704
20	0x3ef60f9a	0.48058778
21	0xbe08bdbb	-0.13353626
22	0x3e035c2b	0.12828128
23	0xbf88cf79	-1.0688316
24	0x3efad887	0.48993322
25	0xbe898035	-0.26855627
26	0xbf425ce7	-0.7592301
27	0x3f90bc57	1.1307477
28	0x3e734cb6	0.23759732
29	0x3ea6debb	0.32591805
30	0x3f681e6f	0.9067144
31	0xbf1dd6a6	-0.6165565
32	0x3faa1929	1.3288928
33	0xbf36488e	-0.7120446
34	0x3f3f1e43	0.7465555
35	0x3eab92ab	0.33510336
36	0xbf8bbd5c	-1.0917163
37	0x3f770da4	0.9650519
38	0x3f032574	0.51229024
39	0x3f379ccc	0.7172363
40	0xbed5814e	-0.41700214
41	0x3f2c8cad	0.67402154
42	0xbf76f5f0	-0.9646902
43	0x3dd14435	0.102180876
44	0x3fa0a481	1.2550203
45	0x3e9dfcf8	0.30857062
46	0x3f35f071	0.7107001
47	0x3ea9d43d	0.33169737
48	0x3f06739a	0.52520144
49	0x3eb6446c	0.35599077
50	0xbf3bda46	-0.73379934
51	0x3f84f9d9	1.0388747
52	0xbd31b06b	-0.043381136
53	0x3eb696d6	0.35661954
54	0x3f54e045	0.8315471
55	0xbf8d8607	-1.1056527
56	0x3d18fdfa	0.037351586
57	0x3f789bb2	0.9711257
58	0x3f909ac6	1.1297233
59	0x3f8edc2e	1.1160944
60	0xbea61659	-0.32438925
61	0xbef17b72	-0.47164494
62	0x3dbfad96	0.09359281
63	0xbf6292e0	-0.88505363

l2.bias f4 [8]
0	0x3f087e41	0.5331765
1	0xbdadf873	-0.084946536
2	0xbddbbb09	-0.107290335
3	0xbeccd6d3	-0.40007648
4	0x3ee4d584	0.4469415
5	0xbcb59ccd	-0.022169495
6	0x3e59ea76	0.21280846
7	0x3ee51721	0.44744208

l3.weight f4 [7, 8]
0	0x3d80d2be	0.06290196
1	0xbf029649	-0.51010567
2	0xbfbdf471	-1.4840223
3	0x3f4b16c0	0.7933159
4	0xbe16f508	-0.1474191
5	0xbe1095b5	-0.14119609
6	0x3ee58afb	0.44832596
7	0xbfc30496	-1.5235775
8	0xbfa8dbe3	-1.3192104
9	0xbf07e9e7	-0.5309128
10	0xbf87abdd	-1.0599324
11	0xbfdead11	-1.7396566
12	0x3efdf3c8	0.49600053
13	0xbf6a7787	-0.91588634
14	0xbf8374d9	-1.0270034
15	0x3f48ec9b	0.7848603
16	0xbdf30089	-0.118653364
17	0xbf0bbdf4	-0.5458672
18	0xc0012672	-2.0179715
19	0x3e4d90de	0.20074794
20	0x3e98e7b1	0.29864267
21	0xbf978e53	-1.1840309
22	0x3f123402	0.5711061
23	0xbbad9ed9	-0.005298477
24	0x3ec8c1d6	0.39210385
25	0xbea00b20	-0.31258488
26	0xbf9009a3	-1.1252941
27	0xbf9e10ff	-1.2348937
28	0x3f8060b8	1.0029516
29	0xbf8035ae	-1.0016382
30	0xbf2c2ec5	-0.67258865
31	0xbfb327e5	-1.399655
32	0xbf5a14cd	-0.8518799
33	0x3f1ca43a	0.6118809
34	0x3f3bca06	0.7335514
35	0xbfe1f24a	-1.7652066
36	0xbf8ffe85	-1.1249548
37	0xbf7437d4	-0.95397687
38	0xbf22cbb2	-0.63592064
39	0x3f14c963	0.5811979
40	0xbe42a26b	-0.1900727
41	0xbf5f590b	-0.87245244
42	0x3ea198d3	0.31561908
43	0xbd881fc0	-0.06646681
44	0xbf8a89e1	-1.0823327
45	0x3ea97af1	0.3310161
46	0x3e81ff2b	0.2538999
47	0x3c8a671f	0.016894875
48	0x3f37ecc0	0.71845627
49	0xbf329ff3	-0.69775313
50	0xbfa143fa	-1.259887
51	0xbfc59c2c	-1.5438285
52	0xbf4a4c4a	-0.7902266
53	0x3f08f22f	0.5349454
54	0xbf0552e0	-0.5207958
55	0xbfa2e966	-1.2727478

l3.bias f4 [7]
0	0xbef5418c	-0.4790157
1	0x3dd92ac7	0.10603862
2	0xbe4efff5	-0.20214827
3	0x3e98333f	0.29726598
4	0x3e864a04	0.26228344
5	0xbd493530	-0.04912299
6	0x3ec6d3ff	0.38833615
