data.pth (torch, 4375 bytes, 6 tensors)

l1.weight f4 [8, 38]
000000 0a 38 3e bf a2 8d 9e 3f f3 0c a1 3f c7 21 9f 3f
       -0.7430426 1.2386973 1.2582077 1.2432183
000010 3f 1d 9b 3f 71 77 96 3f 55 18 9a 3f 21 1a 66 3e
       1.21183 1.1755201 1.2038676 0.22470905
000020 72 38 5c be 03 82 8e be 6f 59 12 3e 94 53 e7 be
       -0.21505907 -0.27833566 0.14291929 -0.45180953
000030 26 ee 00 3f ae 4f 9c be 89 b4 8c 3f 5a 80 f8 be
       0.50363386 -0.3052954 1.0992595 -0.48535424
000040 c3 fd 84 bf c7 3c 5b bf 8b b4 60 bf e5 27 4b bf
       -1.0389942 -0.85639614 -0.87775487 -0.7935775
000050 d1 08 88 be b2 43 b2 3e 5b a6 64 be ec 39 0e 3e
       -0.26569226 0.34817272 -0.22329085 0.13889283
000060 89 9f 3b 3e 97 d5 7a bf bd b5 74 bf 9b a4 c2 3d
       0.18322577 -0.9798216 -0.9558981 0.09504052
000070 96 19 a4 3f cb 01 05 40 6b 81 98 3f 1f 73 24 3f
       1.2820308 2.0782344 1.1914495 0.6423816
000080 0b 7a 03 bf ec 1b ce be 80 b6 e0 3e a0 44 bd 3c
       -0.513581 -0.40255678 0.43889236 0.023104012
000090 ed 28 66 3f 0d 61 81 be 40 b3 6d bc 35 18 08 be
       0.899062 -0.25269356 -0.014508069 -0.13290484
0000a0 bf 74 22 3c 0d 74 a8 bd 45 4b e2 3c 80 c8 8a 3d
       0.00991553 -0.0822526 0.027623782 0.067765236
0000b0 0f 70 47 3d 8a 81 2d 3c 9e a9 11 be b5 18 8d 3d
       0.04869085 0.010589967 -0.1422486 0.06889478
0000c0 f4 2d 8a 3d a8 19 d7 bc 78 96 03 be 26 45 96 3d
       0.06747046 -0.026257351 -0.12850368 0.07337408
0000d0 71 d8 60 3d b8 65 fc bc c8 43 12 bd b5 d7 17 be
       0.054893915 -0.030810222 -0.035709172 -0.1482838
0000e0 5a 23 b6 bd f4 4d 02 be 79 2f 2b bd 8f 0c f4 bd
       -0.088934615 -0.1272505 -0.04179332 -0.11916458
0000f0 08 77 f2 bc ba 31 e6 3d 4e 7f 03 be 98 0e 0d be
       -0.029597774 0.11239953 -0.12841532 -0.13775098
000100 a2 80 b5 3b a4 24 b8 bd c8 de f7 bc 59 d2 f9 bb
       0.005539016 -0.08991364 -0.030257598 -0.0076239523
000110 59 fc 19 be 41 a0 a4 3d dc 65 a9 bd 6c f9 10 3d
       -0.15037669 0.080383785 -0.08271381 0.035394117
000120 61 b5 1e 3e ed ef 81 bd 90 bc e8 3c 7a 71 74 3d
       0.15498878 -0.0634459 0.028410226 0.059678532
000130 b9 b1 5f 3e c2 cf f3 be 25 e5 09 bf 33 54 ee be
       0.2184514 -0.47619444 -0.5386527 -0.46548614
000140 03 33 ce be cd 10 d9 be 76 31 d7 be 73 4d 33 3e
       -0.40273294 -0.4239563 -0.42029923 0.17510013
000150 2d 20 37 bc ab aa 8b bd 16 cb 1a 3f c2 0c 05 3c
       -0.011177105 -0.06819662 0.60466135 0.0081207175
000160 40 35 71 bf d2 b8 28 3e 86 80 3b bf c0 0d 9e bd
       -0.9422188 0.16476753 -0.73242986 -0.07717466
000170 5b ad 44 3f ae 6c 41 be cd 83 6a be 01 d7 c1 bd
       0.7682702 -0.18889114 -0.2290184 -0.09464837
000180 6b ca 83 3d 0a 71 ef 3e e5 fa 71 3d 67 d5 50 3f
       0.064350925 0.4676593 0.059077162 0.81575626
000190 93 4b 0b be bc 9a 65 3f 84 4c 2f 3f b4 5e fb 3e
       -0.13603048 0.8968923 0.6847613 0.4909569
0001a0 92 63 c0 bc ba 40 9f bf 82 b0 10 3f 13 f9 06 3f
       -0.023484979 -1.2441628 0.5651933 0.5272381
0001b0 7c 15 03 3e 79 db 47 3d 4e b0 e6 3c e7 17 9b be
       0.12801164 0.04879329 0.02816024 -0.30291674
0001c0 35 1b 7f be a0 18 0e 3e 94 d1 f4 bd d2 33 07 bf
       -0.24912722 0.13876581 -0.11954036 -0.52813447
0001d0 4d 09 eb be 1d 4f 04 bf 2f 3c 0b bf 67 4d 06 bf
       -0.45905533 -0.5168322 -0.5438871 -0.52461857
0001e0 53 1d 0a bf e5 1f bf 3e 4b 59 f6 bd 8d cb a3 bd
       -0.53950995 0.3732902 -0.1202875 -0.079978086
0001f0 0e c2 a3 3e 9a 37 56 3d ec fd 18 3e 12 53 f3 3e
       0.3198399 0.05229912 0.14940614 0.47524315
000200 2b 7d 19 bf fb 63 28 be ef 3e 58 3f bc 70 05 be
       -0.59956616 -0.1644439 0.8447103 -0.13031286
000210 55 03 a9 be b8 59 90 be 58 c4 43 bd 0c ad 11 3e
       -0.33010355 -0.2819345 -0.04779467 0.14226168
000220 79 93 26 3e 66 d8 24 3f f2 80 a9 3d 1a 01 5d 3f
       0.16267194 0.643927 0.082765475 0.86329806
000230 71 74 5a 3f fe 8e 10 3f f7 2e c8 bc 11 69 a4 be
       0.85333925 0.5646819 -0.024436457 -0.3211141
000240 9a 75 77 3e a1 69 00 bf 81 20 a3 3e 03 2d ef bd
       0.24165955 -0.50161177 0.31860736 -0.11678507
000250 06 0c a3 3d 42 11 60 3d fb e9 c9 bd 8d 17 c9 bc
       0.07961278 0.05470396 -0.09859081 -0.024547363
000260 45 4b 87 3f d7 76 45 bf f3 d9 4b bf 23 fa 45 bf
       1.0569845 -0.7713446 -0.7962944 -0.77334803
000270 ea a4 42 bf 99 bd 46 bf d6 f8 46 bf 3c 61 7f 3e
       -0.7603289 -0.77633053 -0.77723444 0.24939436
000280 68 b5 05 3f f2 82 e4 3e 1f f2 a8 3e 8c 87 28 3f
       0.5222993 0.44631153 0.32997224 0.6583183
000290 f1 87 0a 3e 19 cd bf 3e 0f 24 07 bf b4 bc 1a 3f
       0.1352842 0.37461165 -0.52789396 0.6044419
0002a0 df f5 b2 bd 34 88 88 3f 88 c7 60 3f 9e ad 87 3f
       -0.087383024 1.0666566 0.8780446 1.0599859
0002b0 61 51 26 3f 25 32 61 3e 4d d3 28 3f 81 74 ce 3e
       0.64967924 0.21991785 0.6594742 0.4032326
0002c0 8f 30 2c be b1 ec 0a bd c5 60 1f bd 4d 58 06 3f
       -0.16815399 -0.033917133 -0.038910646 0.52478486
0002d0 ae 67 5a bd 13 d0 98 bf 4a ed 71 be f4 8d e9 3d
       -0.053321533 -1.1938499 -0.23625675 0.114040285
0002e0 17 7e c2 3e 9e 79 10 3f a0 d0 79 3d bb 95 c4 3e
       0.37986824 0.56435573 0.060989976 0.38395485
0002f0 b6 75 1c bf 74 e4 21 3f 40 14 82 3d b4 50 f5 3e
       -0.6111711 0.63239217 0.06351519 0.47913134
000300 39 30 1a 3f ee cd f1 3e f2 49 a4 3e c9 d8 9f 3e
       0.6022983 0.47227424 0.32087666 0.3122008
000310 bc a2 b3 3e 19 f9 58 3e bb a0 9b 3e 0f ac 93 3e
       0.35085094 0.21188773 0.30396065 0.28842208
000320 e7 95 7b 3e 06 48 d7 3d 6c 56 4e bf 7f a0 b4 be
       0.24568902 0.10511784 -0.8060062 -0.352787
000330 6a 44 01 bf c5 4b 58 3e dd 9f 24 bf 25 91 06 3f
       -0.50495017 0.21122654 -0.6430643 0.5256522
000340 5a 2e fc 3e 4e e8 9e 3e a1 96 31 3e b5 82 18 3e
       0.49254113 0.3103661 0.17342617 0.14893611
000350 2e c4 57 3e af 84 00 be b0 a0 7d 3d 52 5f 24 bf
       0.2107093 -0.12550615 0.06192082 -0.6420795
000360 29 59 24 bf fc dc b0 3e 36 66 92 be 9d 24 3d bf
       -0.6419855 0.34543598 -0.28593606 -0.7388399
000370 f2 1c 89 3f d5 76 00 40 fe 41 4e bd 5e 46 25 3d
       1.0711958 2.007253 -0.050355904 0.04035031
000380 0b ec 71 3d d4 63 f5 bd 31 a3 37 bf d2 eb 67 3e
       0.059063 -0.11981931 -0.71733385 0.22648552
000390 33 e9 57 3d 09 03 51 3f 06 09 49 3f 81 18 5c 3f
       0.05271263 0.81645256 0.78529394 0.8597489
0003a0 d4 91 81 3f 53 cd 80 3f d0 aa 77 3f f4 fe 80 be
       1.0122628 1.006266 0.96745014 -0.25194514
0003b0 5c 9a 94 3e 71 1b 98 3e 14 c7 94 3d a7 f8 7f 3e
       0.29024017 0.29708436 0.07264534 0.24997197
0003c0 cb 24 2e bf 39 57 03 bf 58 af cb bd df 06 a3 3d
       -0.6802489 -0.51304966 -0.099455535 0.07960295
0003d0 d4 a6 f7 be dd 6a 0d 3e 27 70 a3 bd 93 29 a6 3d
       -0.48369467 0.13810296 -0.07980376 0.081133984
0003e0 a4 e0 c4 3d 52 06 03 3e 17 b1 e6 3c 44 d1 26 be
       0.09613159 0.1279538 0.028160615 -0.16290766
0003f0 18 de eb 3d aa 56 04 bf 33 34 0a bf 39 0e ee 3d
       0.115169704 -0.5169474 -0.539859 0.116238065

l1.bias f4 [8]
000000 47 4d 72 3f 4a 7c c3 bd 0c 34 3d 3f 21 1b 4d 3f
       0.94649166 -0.09545191 0.7390754 0.8011952
000010 53 10 6d 3f f0 9e 24 3f 1e bc ea 3e 83 99 62 3f
       0.92603034 0.6430502 0.45846647 0.8851549

l2.weight f4 [8, 8]
000000 9c 43 a1 3f b7 20 2d bd 90 e3 2b 3e 65 c0 88 3f
       1.2598758 -0.042267527 0.16786027 1.0683714
000010 81 8d 49 bf 3d 10 7a bf 77 aa 06 bf 81 54 dd 3f
       -0.7873154 -0.9768103 -0.5260386 1.7291414
000020 43 cc 9c be 76 76 4f 3e 46 05 41 3e 0a 17 48 be
       -0.3062459 0.20260033 0.18849668 -0.19540039
000030 e4 5b b2 be 10 8b 87 be 14 31 d5 3d 06 ba 6a 3e
       -0.34835732 -0.26473284 0.104097515 0.22922525
000040 2e d1 8c be c0 86 33 3d ba 5e 90 3f 7a ed 2b 3f
       -0.2750334 0.04382968 1.1278908 0.67159235
000050 53 18 a1 be c2 68 57 3d 2c c8 0d bf 39 8f c4 3d
       -0.3146387 0.05259014 -0.55383563 0.0959763
000060 ca 38 b0 3f bf e0 92 be 21 7a 90 3f 44 f5 1c be
       1.3767331 -0.28687093 1.1287271 -0.15327936
000070 4b bb 64 bf f3 3f b5 3f ac b1 ca 3f 3d b4 46 bf
       -0.89348286 1.4160141 1.5835471 -0.7761877
000080 26 00 90 bf c0 13 d4 3b a6 65 1f 3f 72 e0 3b 3f
       -1.1250045 0.006472081 0.6226448 0.7338935
000090 b5 01 54 3f 22 04 66 bd b5 25 d5 be ee ca e1 3d
       0.82815105 -0.056156285 -0.4163033 0.11025034
0000a0 75 ad 4d be 30 d0 bb bc 80 6d 3b 3b 7c 4a 90 3d
       -0.200857 -0.02292642 0.0028599203 0.07045457
0000b0 51 65 a1 be 1e 14 60 3e bc 0c 8d bd f2 f7 ae be
       -0.3152261 0.21882674 -0.068871945 -0.34173542
0000c0 50 60 0e bf e0 e3 36 be 4c ba ac 3f 92 93 5c 3f
       -0.5561571 -0.17860365 1.3494353 0.86162674
0000d0 cc 3c ea 3f bd 6b 97 3e 6d d1 8a be d6 1c 54 3f
       1.8299804 0.29574385 -0.27112904 0.828565
0000e0 a8 93 a1 be d8 ba 9a be ef 60 04 be ec cd 99 be
       -0.31557965 -0.30220675 -0.12927602 -0.30039918
0000f0 17 7e 6b be 36 29 ee 3c 2f 75 d2 bd 3f db ac be
       -0.22997318 0.029072385 -0.10276257 -0.33761021

l2.bias f4 [8]
000000 24 88 1e 3f 2b b5 e1 bd 90 86 76 be 4f c1 c0 3e
       0.61926484 -0.11020883 -0.24074769 0.37647483
000010 09 ec 53 be 93 0d 68 be 8d 79 62 3e ff cf b9 3a
       -0.20695509 -0.22661428 0.2211668 0.0014176368

l3.weight f4 [8, 8]
000000 25 1d ec bf 80 75 34 be 2c 96 de bf 41 23 96 bf
       -1.8446394 -0.17622948 -1.7389579 -1.1729509
000010 d0 73 34 3f 04 70 b3 be 5f 8e 8c 3f c8 a0 43 be
       0.70489216 -0.350464 1.0980948 -0.19104302
000020 aa 4e 41 3f 41 21 5f be a0 4c f1 bf 9f e3 12 c0
       0.75510657 -0.21790029 -1.8851509 -2.295143
000030 9f f1 e2 bf f2 0f 52 3e d6 94 d4 3e aa e8 6b 3e
       -1.7729987 0.20513895 0.41519803 0.23037973
000040 0c 3b 85 3f 73 5f 50 bd 7d 21 96 bf c8 5c 85 bf
       1.0408645 -0.050872277 -1.172897 -1.041894
000050 94 eb 3a bf af 48 b3 3e aa dc cb bf 77 a8 69 3e
       -0.73015714 0.3501639 -1.5926716 0.2281817
000060 14 8a 0a 3d 99 49 b5 3c 94 af 5a bc a3 22 cc be
       0.033823088 0.02212982 -0.013347525 -0.39870176
000070 8f 98 d0 bf 61 32 93 3e de 6a e2 3d d0 52 7b be
       -1.6296557 0.28749374 0.110555395 -0.24543309
000080 73 5c 36 be e9 f8 bb 3d af 86 b9 bf 3f 1c 17 3e
       -0.17808704 0.09178335 -1.4494227 0.14756869
000090 49 69 ed bd 52 3e 70 3e d2 38 8e bf d5 94 36 be
       -0.11592347 0.23461273 -1.111109 -0.17830212
0000a0 7e 2a d5 bf 8e b2 43 be d8 7c a3 3d 0b 18 17 3e
       -1.6653593 -0.19111082 0.079827964 0.14755265
0000b0 38 71 ac bf 5f c2 5e be 05 ec 3e 3e e8 a9 ba 3d
       -1.3472052 -0.21753834 0.18644722 0.09114438
0000c0 ef 25 91 3d 5c 71 f6 bd 79 83 ab 3f 7b 27 b8 bf
       0.070873134 -0.1203334 1.3399497 -1.4387048
0000d0 d6 19 4a 3f ea d8 7e 3e 62 43 25 bd 66 44 37 3e
       0.7894567 0.24887434 -0.040347464 0.17897186
0000e0 d4 e7 15 c0 8b 52 87 3e 32 b9 72 bf d3 71 0c 3f
       -2.3422747 0.26430163 -0.94813836 0.5486118
0000f0 b3 6b fa be 7a ac 6e be 45 3e b9 bf e2 b2 b1 be
       -0.48910293 -0.23307982 -1.4472128 -0.3470679

l3.bias f4 [8]
000000 1f c3 af 3e 3c 20 a4 3e ad 79 c1 3e 77 b6 80 be
       0.34328553 0.32055843 0.37788144 -0.2513921
000010 6e 22 97 3e 5f 3d a3 be 37 a6 c8 be 6f e9 87 3d
       0.29518455 -0.3188276 -0.39189312 0.06636321
